Use GPU: 0 for training
=====> Preparing data...
Using re-weighting: [SQRT_INV]
Training data size: 33
Validation data size: 9
Test data size: 5
[0.8, 0.2, 0.2, 0.5, 0.7]
=====> Building model...
DataParallel(
  (module): ResNet(
    (conv1): Conv2d(9576, 957, kernel_size=(3, 3), stride=(1, 1), padding=(3, 3), bias=False)
    (bn1): BatchNorm2d(957, eps=1e-05, momentum=0.1, affine=True, track_running_stats=True)
    (relu): ReLU(inplace=True)
    (maxpool): MaxPool2d(kernel_size=3, stride=1, padding=1, dilation=1, ceil_mode=False)
    (layer1): Sequential(
      (0): Bottleneck(
        (conv1): Conv2d(957, 957, kernel_size=(1, 1), stride=(1, 1), bias=False)
        (bn1): BatchNorm2d(957, eps=1e-05, momentum=0.1, affine=True, track_running_stats=True)
        (conv2): Conv2d(957, 957, kernel_size=(3, 3), stride=(1, 1), padding=(1, 1), bias=False)
        (bn2): BatchNorm2d(957, eps=1e-05, momentum=0.1, affine=True, track_running_stats=True)
        (conv3): Conv2d(957, 3828, kernel_size=(1, 1), stride=(1, 1), bias=False)
        (bn3): BatchNorm2d(3828, eps=1e-05, momentum=0.1, affine=True, track_running_stats=True)
        (relu): ReLU(inplace=True)
        (downsample): Sequential(
          (0): Conv2d(957, 3828, kernel_size=(1, 1), stride=(1, 1), bias=False)
          (1): BatchNorm2d(3828, eps=1e-05, momentum=0.1, affine=True, track_running_stats=True)
        )
      )
      (1): Bottleneck(
        (conv1): Conv2d(3828, 957, kernel_size=(1, 1), stride=(1, 1), bias=False)
        (bn1): BatchNorm2d(957, eps=1e-05, momentum=0.1, affine=True, track_running_stats=True)
        (conv2): Conv2d(957, 957, kernel_size=(3, 3), stride=(1, 1), padding=(1, 1), bias=False)
        (bn2): BatchNorm2d(957, eps=1e-05, momentum=0.1, affine=True, track_running_stats=True)
        (conv3): Conv2d(957, 3828, kernel_size=(1, 1), stride=(1, 1), bias=False)
        (bn3): BatchNorm2d(3828, eps=1e-05, momentum=0.1, affine=True, track_running_stats=True)
        (relu): ReLU(inplace=True)
      )
      (2): Bottleneck(
        (conv1): Conv2d(3828, 957, kernel_size=(1, 1), stride=(1, 1), bias=False)
        (bn1): BatchNorm2d(957, eps=1e-05, momentum=0.1, affine=True, track_running_stats=True)
        (conv2): Conv2d(957, 957, kernel_size=(3, 3), stride=(1, 1), padding=(1, 1), bias=False)
        (bn2): BatchNorm2d(957, eps=1e-05, momentum=0.1, affine=True, track_running_stats=True)
        (conv3): Conv2d(957, 3828, kernel_size=(1, 1), stride=(1, 1), bias=False)
        (bn3): BatchNorm2d(3828, eps=1e-05, momentum=0.1, affine=True, track_running_stats=True)
        (relu): ReLU(inplace=True)
      )
    )
    (layer2): Sequential(
      (0): Bottleneck(
        (conv1): Conv2d(3828, 957, kernel_size=(1, 1), stride=(1, 1), bias=False)
        (bn1): BatchNorm2d(957, eps=1e-05, momentum=0.1, affine=True, track_running_stats=True)
        (conv2): Conv2d(957, 957, kernel_size=(3, 3), stride=(1, 1), padding=(1, 1), bias=False)
        (bn2): BatchNorm2d(957, eps=1e-05, momentum=0.1, affine=True, track_running_stats=True)
        (conv3): Conv2d(957, 3828, kernel_size=(1, 1), stride=(1, 1), bias=False)
        (bn3): BatchNorm2d(3828, eps=1e-05, momentum=0.1, affine=True, track_running_stats=True)
        (relu): ReLU(inplace=True)
      )
      (1): Bottleneck(
        (conv1): Conv2d(3828, 957, kernel_size=(1, 1), stride=(1, 1), bias=False)
        (bn1): BatchNorm2d(957, eps=1e-05, momentum=0.1, affine=True, track_running_stats=True)
        (conv2): Conv2d(957, 957, kernel_size=(3, 3), stride=(1, 1), padding=(1, 1), bias=False)
        (bn2): BatchNorm2d(957, eps=1e-05, momentum=0.1, affine=True, track_running_stats=True)
        (conv3): Conv2d(957, 3828, kernel_size=(1, 1), stride=(1, 1), bias=False)
        (bn3): BatchNorm2d(3828, eps=1e-05, momentum=0.1, affine=True, track_running_stats=True)
        (relu): ReLU(inplace=True)
      )
      (2): Bottleneck(
        (conv1): Conv2d(3828, 957, kernel_size=(1, 1), stride=(1, 1), bias=False)
        (bn1): BatchNorm2d(957, eps=1e-05, momentum=0.1, affine=True, track_running_stats=True)
        (conv2): Conv2d(957, 957, kernel_size=(3, 3), stride=(1, 1), padding=(1, 1), bias=False)
        (bn2): BatchNorm2d(957, eps=1e-05, momentum=0.1, affine=True, track_running_stats=True)
        (conv3): Conv2d(957, 3828, kernel_size=(1, 1), stride=(1, 1), bias=False)
        (bn3): BatchNorm2d(3828, eps=1e-05, momentum=0.1, affine=True, track_running_stats=True)
        (relu): ReLU(inplace=True)
      )
      (3): Bottleneck(
        (conv1): Conv2d(3828, 957, kernel_size=(1, 1), stride=(1, 1), bias=False)
        (bn1): BatchNorm2d(957, eps=1e-05, momentum=0.1, affine=True, track_running_stats=True)
        (conv2): Conv2d(957, 957, kernel_size=(3, 3), stride=(1, 1), padding=(1, 1), bias=False)
        (bn2): BatchNorm2d(957, eps=1e-05, momentum=0.1, affine=True, track_running_stats=True)
        (conv3): Conv2d(957, 3828, kernel_size=(1, 1), stride=(1, 1), bias=False)
        (bn3): BatchNorm2d(3828, eps=1e-05, momentum=0.1, affine=True, track_running_stats=True)
        (relu): ReLU(inplace=True)
      )
    )
    (layer3): Sequential(
      (0): Bottleneck(
        (conv1): Conv2d(3828, 957, kernel_size=(1, 1), stride=(1, 1), bias=False)
        (bn1): BatchNorm2d(957, eps=1e-05, momentum=0.1, affine=True, track_running_stats=True)
        (conv2): Conv2d(957, 957, kernel_size=(3, 3), stride=(1, 1), padding=(1, 1), bias=False)
        (bn2): BatchNorm2d(957, eps=1e-05, momentum=0.1, affine=True, track_running_stats=True)
        (conv3): Conv2d(957, 3828, kernel_size=(1, 1), stride=(1, 1), bias=False)
        (bn3): BatchNorm2d(3828, eps=1e-05, momentum=0.1, affine=True, track_running_stats=True)
        (relu): ReLU(inplace=True)
      )
      (1): Bottleneck(
        (conv1): Conv2d(3828, 957, kernel_size=(1, 1), stride=(1, 1), bias=False)
        (bn1): BatchNorm2d(957, eps=1e-05, momentum=0.1, affine=True, track_running_stats=True)
        (conv2): Conv2d(957, 957, kernel_size=(3, 3), stride=(1, 1), padding=(1, 1), bias=False)
        (bn2): BatchNorm2d(957, eps=1e-05, momentum=0.1, affine=True, track_running_stats=True)
        (conv3): Conv2d(957, 3828, kernel_size=(1, 1), stride=(1, 1), bias=False)
        (bn3): BatchNorm2d(3828, eps=1e-05, momentum=0.1, affine=True, track_running_stats=True)
        (relu): ReLU(inplace=True)
      )
      (2): Bottleneck(
        (conv1): Conv2d(3828, 957, kernel_size=(1, 1), stride=(1, 1), bias=False)
        (bn1): BatchNorm2d(957, eps=1e-05, momentum=0.1, affine=True, track_running_stats=True)
        (conv2): Conv2d(957, 957, kernel_size=(3, 3), stride=(1, 1), padding=(1, 1), bias=False)
        (bn2): BatchNorm2d(957, eps=1e-05, momentum=0.1, affine=True, track_running_stats=True)
        (conv3): Conv2d(957, 3828, kernel_size=(1, 1), stride=(1, 1), bias=False)
        (bn3): BatchNorm2d(3828, eps=1e-05, momentum=0.1, affine=True, track_running_stats=True)
        (relu): ReLU(inplace=True)
      )
      (3): Bottleneck(
        (conv1): Conv2d(3828, 957, kernel_size=(1, 1), stride=(1, 1), bias=False)
        (bn1): BatchNorm2d(957, eps=1e-05, momentum=0.1, affine=True, track_running_stats=True)
        (conv2): Conv2d(957, 957, kernel_size=(3, 3), stride=(1, 1), padding=(1, 1), bias=False)
        (bn2): BatchNorm2d(957, eps=1e-05, momentum=0.1, affine=True, track_running_stats=True)
        (conv3): Conv2d(957, 3828, kernel_size=(1, 1), stride=(1, 1), bias=False)
        (bn3): BatchNorm2d(3828, eps=1e-05, momentum=0.1, affine=True, track_running_stats=True)
        (relu): ReLU(inplace=True)
      )
      (4): Bottleneck(
        (conv1): Conv2d(3828, 957, kernel_size=(1, 1), stride=(1, 1), bias=False)
        (bn1): BatchNorm2d(957, eps=1e-05, momentum=0.1, affine=True, track_running_stats=True)
        (conv2): Conv2d(957, 957, kernel_size=(3, 3), stride=(1, 1), padding=(1, 1), bias=False)
        (bn2): BatchNorm2d(957, eps=1e-05, momentum=0.1, affine=True, track_running_stats=True)
        (conv3): Conv2d(957, 3828, kernel_size=(1, 1), stride=(1, 1), bias=False)
        (bn3): BatchNorm2d(3828, eps=1e-05, momentum=0.1, affine=True, track_running_stats=True)
        (relu): ReLU(inplace=True)
      )
      (5): Bottleneck(
        (conv1): Conv2d(3828, 957, kernel_size=(1, 1), stride=(1, 1), bias=False)
        (bn1): BatchNorm2d(957, eps=1e-05, momentum=0.1, affine=True, track_running_stats=True)
        (conv2): Conv2d(957, 957, kernel_size=(3, 3), stride=(1, 1), padding=(1, 1), bias=False)
        (bn2): BatchNorm2d(957, eps=1e-05, momentum=0.1, affine=True, track_running_stats=True)
        (conv3): Conv2d(957, 3828, kernel_size=(1, 1), stride=(1, 1), bias=False)
        (bn3): BatchNorm2d(3828, eps=1e-05, momentum=0.1, affine=True, track_running_stats=True)
        (relu): ReLU(inplace=True)
      )
    )
    (layer4): Sequential(
      (0): Bottleneck(
        (conv1): Conv2d(3828, 957, kernel_size=(1, 1), stride=(1, 1), bias=False)
        (bn1): BatchNorm2d(957, eps=1e-05, momentum=0.1, affine=True, track_running_stats=True)
        (conv2): Conv2d(957, 957, kernel_size=(3, 3), stride=(1, 1), padding=(1, 1), bias=False)
        (bn2): BatchNorm2d(957, eps=1e-05, momentum=0.1, affine=True, track_running_stats=True)
        (conv3): Conv2d(957, 3828, kernel_size=(1, 1), stride=(1, 1), bias=False)
        (bn3): BatchNorm2d(3828, eps=1e-05, momentum=0.1, affine=True, track_running_stats=True)
        (relu): ReLU(inplace=True)
      )
      (1): Bottleneck(
        (conv1): Conv2d(3828, 957, kernel_size=(1, 1), stride=(1, 1), bias=False)
        (bn1): BatchNorm2d(957, eps=1e-05, momentum=0.1, affine=True, track_running_stats=True)
        (conv2): Conv2d(957, 957, kernel_size=(3, 3), stride=(1, 1), padding=(1, 1), bias=False)
        (bn2): BatchNorm2d(957, eps=1e-05, momentum=0.1, affine=True, track_running_stats=True)
        (conv3): Conv2d(957, 3828, kernel_size=(1, 1), stride=(1, 1), bias=False)
        (bn3): BatchNorm2d(3828, eps=1e-05, momentum=0.1, affine=True, track_running_stats=True)
        (relu): ReLU(inplace=True)
      )
      (2): Bottleneck(
        (conv1): Conv2d(3828, 957, kernel_size=(1, 1), stride=(1, 1), bias=False)
        (bn1): BatchNorm2d(957, eps=1e-05, momentum=0.1, affine=True, track_running_stats=True)
        (conv2): Conv2d(957, 957, kernel_size=(3, 3), stride=(1, 1), padding=(1, 1), bias=False)
        (bn2): BatchNorm2d(957, eps=1e-05, momentum=0.1, affine=True, track_running_stats=True)
        (conv3): Conv2d(957, 3828, kernel_size=(1, 1), stride=(1, 1), bias=False)
        (bn3): BatchNorm2d(3828, eps=1e-05, momentum=0.1, affine=True, track_running_stats=True)
        (relu): ReLU(inplace=True)
      )
    )
    (avgpool): AvgPool2d(kernel_size=3, stride=1, padding=0)
    (bn2): BatchNorm2d(3828, eps=1e-05, momentum=0.1, affine=True, track_running_stats=True)
    (linear): Linear(in_features=34452, out_features=1, bias=True)
    (sigmoid): Sigmoid()
  )
)
 * Overall: MSE 0.124	L1 0.279	G-Mean 0.118
 * Many: MSE 0.142	L1 0.307	G-Mean 0.144
 * Low: MSE 0.089	L1 0.221	G-Mean 0.079
Predicted  [0.15271716, 0.541548, 0.49404818, 0.5231665, 0.5956488, 0.3058035, 0.5137811, 0.1502025, 0.5723069]  for true improvements  [0.8, 0.6, 0.9, 0.9, 0.6, 0.3, 1.0, 0.5, 0.4]
Best L1 Loss: 0.279
…
